public/model.onnx (onnx, 5110 bytes, 4 tensors)

embed.weight f4 [10, 16]
00000000: 4124 f43e 5b6a 19bf 4f98 aebf 2722 8fbf
00000010: c2df 933f fffc 2abf dedb 3abf 0b84 e83d
00000020: d36f adbe 0e4c d3be 1895 d53f 2516 85bf
00000030: b77c d73d e268 92be 6f2c 6b3f 7068 72bd
00000040: 1fb6 5d3f 6751 a8bd 0a5a dbbf aa9b f2bf
00000050: 0aaf f23d 4edf 6a3e 3539 af3b a457 85be
00000060: 26c7 663f 923d 493f 8615 093f 6e2c 2e3d
00000070: c9cb c6bf e485 c6be b369 eb3e 9b0f 81be
00000080: 2c18 b5bf 6288 5abf edf6 ea3e 8255 843e
00000090: abdc ecbe b831 8dbf 2b75 86bd 7663 f1bf
000000a0: 3e59 f43e c69b a13f 8923 763e 6d27 f8bf
000000b0: f932 053f 5de6 5fbf ea11 28bf 4104 003f
000000c0: 52fd da3e dc62 3cbe 142c f83e f3ab 823f
000000d0: 6e40 bdbf fdd7 ebbe 6bf8 33bf bd91 583f
000000e0: 08e1 e6be a120 883f 6ab8 633f 1e19 cd3e
000000f0: 3fec c93f e689 0d3f 54d7 6b3e ee35 dbbe
00000100: 5ead 2140 4ba5 143f bb82 383f b947 adbe
00000110: 820f d0bf f20e 1dbf 067b 75bf 9bc8 843f
00000120: ecff 933f aaea 553f 36a6 003d c115 82bf
00000130: e232 b1be f0f5 6bbd c321 2f3e d2ca a83f
00000140: 3df2 2fbf 0bd4 c4bf 5d7c 8fbf 8d9e 78bf
00000150: 6635 e7bf 6578 00c0 8421 ccbf fdfd 9fbd
00000160: 1404 9ebf f173 14c0 d7e2 213f 5c83 6d3d
00000170: d66d 663f 8002 11bf d97f 04bf 1616 97bf
00000180: 8a37 03bf 26c8 1dbf 4dd0 36be d152 bd3f
00000190: 29de 45bf c3eb 433f 7845 0f40 b0a5 a53f
000001a0: bba1 9a3f 3888 0abf f624 2940 e263 df3f
000001b0: 9edf 7cbf 6422 acbe d352 3cbf 1c2c 683e
000001c0: d006 61bf 47de c3bf 0d4d bbbe bc87 a9bd
000001d0: 1fbf bb3e 42c0 873f 019b d93f 04fd 3fbe
000001e0: 7cba 4fbf 7055 fc3d 334e 4b3f bb59 463f
000001f0: b172 9d3f 758f 0ec0 613c d5bf 8e5c abbe
00000200: a853 4bbb 5cd9 223f 5ac7 86bf 3baa ac3f
00000210: eae7 35be c0d3 64bf 3ad5 ec3f 89e7 c43d
00000220: 9cc8 a2be 610b 75bf 45fd 4fbf c864 0d3f
00000230: 928d cfbd d660 37bf e92f fbbe d912 453e
00000240: 7562 6bbf 1303 a53d dcb6 b23f 8c83 f43d
00000250: a838 b8be c4ff 2fbf ca06 c23e fa23 cebf
00000260: 2de5 2e3f 9b2f 8bbf d758 533f 2e2c 56bf
00000270: e4af a7bd e02b e9bf cb3c 5dbf 7fa1 b6bd
0.4768391 -0.5992791 -1.3640231 -1.1182297 1.155266 -0.6679229 -0.7299174 0.1135331
-0.33874378 -0.41268963 1.6686125 -1.0397383 0.10521834 -0.28595644 0.91864675 -0.05918163
0.8660602 -0.08218651 -1.7136853 -1.8953755 0.11849792 0.22936746 0.005347396 -0.26043427
0.90147626 0.78609574 0.5354847 0.04252284 -1.553094 -0.38774025 0.4597908 -0.2520722
-1.4148002 -0.85364354 0.45891514 0.25846487 -0.46262106 -1.1030798 -0.06565317 -1.8858478
0.47724336 1.2625663 0.24036993 -1.9387032 0.52030903 -0.8746088 -0.65652335 0.5000649
0.42771393 -0.18397087 0.4847113 1.0208725 -1.4785287 -0.46063223 -0.7030093 0.8459738
-0.4509356 1.0634958 0.8895327 0.40058225 1.5775222 0.5528854 0.2303136 -0.42814583
2.5262065 0.5806472 0.7207448 -0.33843783 -1.6254733 -0.6135093 -0.95890844 1.037372
1.1562476 0.83561194 0.03140851 -1.0162889 -0.34609133 -0.05760759 0.17102723 1.3186896
-0.68729 -1.537721 -1.1209828 -0.9711693 -1.8063171 -2.0073483 -1.5947728 -0.07812116
-1.2344995 -2.3195765 0.63236755 0.057986602 0.90011346 -0.5664444 -0.5175758 -1.1803615
-0.5125662 -0.6163353 -0.17852898 1.4790899 -0.77292114 0.7653162 2.238615 1.2941189
1.2080606 -0.54114103 2.642881 1.7452357 -0.9877871 -0.33619988 -0.7356388 0.22673076
-0.8790102 -1.5302209 -0.36582223 -0.082778424 0.3666925 1.0605547 1.7000428 -0.18748862
-0.8114393 0.123209834 0.794162 0.7748067 1.2300626 -2.227506 -1.6659051 -0.3346905
-0.0031025205 0.63612914 -1.0529587 1.348945 -0.1776425 -0.89385605 1.8502572 0.09614474
-0.31793678 -0.9572049 -0.81245834 0.55231905 -0.10134424 -0.71632135 -0.4905999 0.19245471
-0.9194711 0.08057227 1.3962054 0.11939153 -0.35980725 -0.6874964 0.37895805 -1.6104729
0.68318444 -1.0873903 0.82557434 -0.8366116 -0.08187845 -1.8216515 -0.8642089 -0.08917522

fc1.bias f4 [6]
00000000: 5e46 17bd df66 9fbd 6625 c2bc 0ca6 d9bc
00000010: 601e 9c3d 602f 963d
-0.03693234 -0.07783293 -0.023699474 -0.026568435 0.07622981 0.07333255

fc1.weight f4 [6, 160]
00000000: 69cb 9d3b 770f e33c 4bae 0e3d 4573 72bd
00000010: 4637 963c bea3 6c3d d966 5a3d 5fb7 a1bd
00000020: 2940 5f3b d8ff 67bc a0f1 a2bc 0791 d1bc
00000030: 94d5 6f3d 9edb ee3c 7803 943d e049 da3a
00000040: 611c 473d 74dc 18bd ad68 6fbd a0e8 163d
00000050: 29e1 223c 8ef6 1abd 4c2c 4d3d 16e4 6e3d
00000060: 8abb 44bd 05c2 863d e7b5 9bbd 5483 8fbd
00000070: 60b8 483d 2a34 9fbd 51af 743d a666 6dbd
00000080: dc42 27bc c60c 4a3d ac1b 23bd f893 303c
00000090: 869f 903d 5b9a 5c3d 884c 45bc 455e 003d
000000a0: d8a5 11bd 55e9 d43a 938e eabc 919e 3fbd
000000b0: 91f6 2fbd 6200 8dbd fdf3 7e3d 3c23 3f3d
000000c0: 02a1 0abd 9852 1c3d dd78 85bc 4e10 2cbd
000000d0: e6ac f83c db79 463d 7bad 16bd e0ef e73b
000000e0: f345 773d a907 3bbd 1acf 21bd 6677 f23c
000000f0: 494c 12bd 88f3 1dbd fadc 913d 759b 26bd
00000100: b27b 86bc 7be9 08bd e73b 253d 5d65 263d
00000110: 2097 acbc c019 513d 13c0 203d 1429 7b3d
00000120: a106 61bd 69b7 d13b 0730 d1bc d06e 82bd
00000130: 4693 f3bc 4a08 7bbd 3a6a da3c deda 6b3c
00000140: 8956 c9bc 6ab2 9e3b 2a74 3cbd 7f71 533c
00000150: 2466 e13c 1144 6e3b 8012 11bc 02b5 dfbc
00000160: 02db 013d 15ef ca3b 9c7e 4b3c 2eb5 bbbc
00000170: 09f4 47bd ede6 99bd 00e4 e8bc 2415 65bd
00000180: b0e0 4f3d eded c5bc aa01 8bbb 4c5d 95bd
00000190: dc6e 5b3b 0c79 75bd 0bef 833d 70bb 903c
000001a0: 624e 0c3d 2028 0ebd 846e 97bd 767b 30ba
000001b0: 7f94 663c 22f5 ba3c c88b d9bc 847e 1abd
000001c0: 783f 82bc 486d 6c3d 7bba 523c 0a8e 18bd
000001d0: aeb8 16bd a1ec 11bd dd52 783d 1acc 3cbd
000001e0: 3748 95bd c3d5 48bd 9c65 f8bc 6a83 01bd
000001f0: 29fd 043d d850 713d 494c 903c 280a 593d
00000200: 094c 853d 7276 813d f8c7 ca3c 20f1 9e3c
00000210: 8715 03bd a9e3 52bd c8eb dd3c 1043 bbbc
00000220: 829e febc be9e 323d 39af 923d 7617 013c
00000230: e0e8 033d 327b 353c 6377 06bd 08a4 6b3d
00000240: bb27 62bd 5e6b 39bc e200 2dbc 26e7 4a3d
00000250: f3ce d1bc bf53 fcbc e007 acbc dd83 17bc
00000260: 966f aabc ac8f 1abd 9953 383d 7811 05bd
00000270: f5f4 91bd e162 fb3c ed30 293c 9878 ea3c
00000280: 3407 44bd 03c9 763c 34b6 9dbc 30e9 09bd
00000290: edd4 863d 6202 863d 08c5 cb3c 9688 0b3d
000002a0: 98e9 243d 1718 92bd dc38 81bd 08d3 8f3d
000002b0: 8719 603c 6bf6 7c3d 76f8 64bd 9f68 53bd
000002c0: 3fe0 ebbc 12d2 4c3d 4e1c 8bba 02ac 5b3d
000002d0: f318 973d a9ac debc 300a f6bc 0ec0 e23c
000002e0: bbbf 923d 7af7 5bbd c477 403c de79 ae3c
000002f0: 2a2e ddbc 8b8e 423c 149b 0a3d cc9c f93c
00000300: 6dbf 63bc 3a61 3fbd 52a7 f7bc 8050 46bd
00000310: b1d7 6f3c 7322 753c 54ae 1fbc d9e2 23bd
00000320: 7e76 373d 28c4 94bd 2806 8bbd a3e6 983d
00000330: c13f f7bb f99c 123d f86e a63c b2a7 a03d
00000340: 3989 41bc 1fa8 05bc aa5a 863d 00cd 6cbd
00000350: 5803 f23c b1d9 873d 3d21 203b 6f98 96bc
00000360: f814 363d 1bdc 04bd 0e76 1bbb 9fa1 1c3d
00000370: 5456 8abd 78fd 58bd dd59 8bbd f759 9fbd
00000380: 6ec1 2a3d b326 8e3b 0beb 173d a125 9a3d
00000390: c703 c5bc ba7f 5ebd ad96 0b3d 2e03 e1bc
000003a0: 0876 833d 7e37 8cbd 255c 083c 063a babb
000003b0: 31bf 03bd 0bf5 8a3d 4fda 203d 5b06 ddbc
000003c0: ad66 14bd 43e4 2abd 8307 313c bdf7 673c
000003d0: e3d5 d4bc 639b 433d 725b 0abc 21cd e43b
000003e0: bd39 15bc 7b43 0dbd 8050 94bc 047e 4ebd
000003f0: 82ec 39bc 8f90 653d 0372 2e3d 3fbb a1bc
0.004815508 0.027717335 0.034834187 -0.05919196 0.018336903 0.057773344 0.05332074 -0.078963034
0.0034065342 -0.014160119 -0.019890606 -0.02558185 0.058553293 0.029157456 0.07227224 0.0016654097
0.04861105 -0.037319615 -0.058449436 0.036842942 0.009941378 -0.03783279 0.050091073 0.05832299
-0.048030414 0.06579975 -0.076030545 -0.07007471 0.04900396 -0.077736214 0.059737507 -0.05795922
-0.010208812 0.049328588 -0.03982131 0.010777466 0.07061677 0.053858142 -0.012042172 0.031339902
-0.03555855 0.0016243855 -0.028632438 -0.04678208 -0.042959753 -0.06884839 0.062244404 0.04666446
-0.033844955 0.038164705 -0.016292984 -0.042007737 0.030355882 0.048456054 -0.036786538 0.007078156
0.060369443 -0.045661602 -0.039504148 0.02959795 -0.035717282 -0.038562328 0.07122226 -0.0406756
-0.016416404 -0.03342579 0.04034033 0.04062401 -0.021068156 0.051049948 0.039245676 0.061318472
-0.054937962 0.006400038 -0.025535597 -0.06368792 -0.029733311 -0.061287202 0.02666198 0.014395444
-0.024577396 0.004843046 -0.04600922 0.012905478 0.027514525 0.0036356489 -0.008854508 -0.027307991
0.031703003 0.0061930516 0.012420323 -0.022913542 -0.048816714 -0.07514749 -0.028429031 -0.055928364
0.050751388 -0.024161303 -0.0042421417 -0.072931856 0.0033482825 -0.059929892 0.06442078 0.017667502
0.03425444 -0.034706235 -0.07394126 -0.00067322643 0.01407349 0.022821967 -0.02655591 -0.03771831
-0.015899405 0.057721406 0.012861843 -0.037244834 -0.036797218 -0.035626058 0.0606259 -0.046093084
-0.072891645 -0.049031984 -0.030321889 -0.031619467 0.032467995 0.05891499 0.0176145 0.0529882
0.06508643 0.0632142 0.024753556 0.019402087 -0.032002952 -0.051486645 0.027089968 -0.022859126
-0.031081442 0.04360842 0.07162327 0.007879129 0.03220451 0.011076735 -0.0328287 0.05752948
-0.05521367 -0.011317102 -0.0105592925 0.049536847 -0.025611376 -0.030801652 -0.020999849 -0.009247747
-0.020805161 -0.037734672 0.0450016 -0.032487363 -0.071268 0.030686798 0.010326606 0.028621957
-0.047858432 0.015062573 -0.01925192 -0.03366965 0.06583581 0.06543423 0.024874225 0.034065805
0.040261835 -0.07133501 -0.06309673 0.07022673 0.013677961 0.06175844 -0.055901013 -0.051613446
-0.028793452 0.050005026 -0.0010613294 0.053630836 0.073778056 -0.02718194 -0.030034155 0.02767947
0.07165476 -0.05370281 0.011747304 0.021298345 -0.026999552 0.011874805 0.0338393 0.030470274
-0.01390062 -0.04672358 -0.030231152 -0.048416615 0.014638827 0.014961827 -0.009746153 -0.04001126
0.044790737 -0.07263976 -0.067882836 0.074658655 -0.007545442 0.035794232 0.020316586 0.07844485
-0.011812502 -0.008157759 0.065602615 -0.05781269 0.02954261 0.06633318 0.0024433874 -0.018383233
0.04445359 -0.03243647 -0.002372149 0.03824007 -0.06754747 -0.0529761 -0.068042494 -0.07780831
0.041688375 0.0043381094 0.03708939 0.075267084 -0.024049653 -0.05432103 0.034079242 -0.027467337
0.06418997 -0.06846522 0.00832275 -0.0056831865 -0.032164756 0.067850195 0.039270695 -0.02698057
-0.03623073 -0.041721594 0.010805014 0.0141581865 -0.025980895 0.04775561 -0.008444654 0.006982461
-0.009108004 -0.034488183 -0.018104792 -0.050413147 -0.011347892 0.056046065 0.0425892 -0.019742606

fc2.weight f4 [1, 6]
00000000: 3444 c938 e30c bfbe ebe1 a3bd 1d94 2f3e
00000010: b694 383e b3f9 c53e
9.597131e-05 -0.3731452 -0.08002075 0.17146344 0.18025479 0.38667068
